data.pth (torch, 12095 bytes, 6 tensors)

l1.weight f4 [8, 192]
000000 90 d9 cb 3e 14 65 0c 3f 99 8a 7c 3e db 6a 2e 3f
       0.39814425 0.5484173 0.24662246 0.681318
000010 70 18 29 3f 1b 47 38 3f 80 10 2f 3f 86 2c 30 3f
       0.66052914 0.719835 0.6838455 0.6881794
000020 42 1e 25 3f 30 ec 26 3f 47 83 5e 3f 35 dd 37 3f
       0.64499295 0.65204144 0.86919063 0.7182191
000030 f3 51 48 3f db eb fe 3e 0c 75 88 3f 27 d0 24 3f
       0.78250045 0.49789318 1.066072 0.64380115
000040 67 3f 43 bd 3c d9 f0 3e dc 21 55 3f 9d 17 99 3f
       -0.047667887 0.47040737 0.8325479 1.1960331
000050 43 21 2b 3f 4c 29 55 3e dd d4 46 be cf 68 07 3e
       0.6684763 0.20816535 -0.19417138 0.13223575
000060 6f ff cd 3e e6 b5 ed 3f 3c 56 fa 3f c3 db 3f 3f
       0.40233943 1.8571136 1.9557567 0.74944705
000070 55 47 98 3f e2 ec 1e 3e 84 9b 48 3e 36 b1 b0 bf
       1.1896769 0.15520051 0.19590575 -1.380408
000080 9a 97 a8 3e 37 46 b2 be 87 ac 15 bf 5d 03 5d be
       0.32928163 -0.34819195 -0.5846638 -0.21583314
000090 4b 4e 34 3f 61 a3 98 3e 73 dc 6d 3f 65 5e e4 bd
       0.70431966 0.29812148 0.92914504 -0.11150817
0000a0 36 ca 18 bf c0 ca a6 3e 8a 74 07 be b7 86 60 3f
       -0.5968355 0.3257656 -0.1322805 0.8770556
0000b0 f6 e9 bc 3e 2f 0b 97 3e 31 b4 69 ba be 04 44 3e
       0.36897248 0.2950072 -0.0008915095 0.19142434
0000c0 cd f5 85 bf b5 46 ae bd 8d 3d d0 3e a6 34 97 be
       -1.0465637 -0.0850958 0.4067196 -0.29532355
0000d0 5a c7 35 3f 11 b5 2d 3e 65 11 cc bf a7 eb d4 bd
       0.7100731 0.16963603 -1.5942808 -0.103965096
0000e0 67 9e c6 3e f6 1c 93 3f 07 43 a0 3e ad e1 9b bf
       0.38792726 1.1493213 0.31301138 -1.2178246
0000f0 ac 68 6a bf 4c be 06 be 41 b8 62 bf f6 13 2a be
       -0.91565967 -0.1315853 -0.885624 -0.16609177
000100 8e 04 18 bf d3 4e 30 3e 95 0e ac 3e 6e 31 33 3e
       -0.5938195 0.17217569 0.33604875 0.17499325
000110 34 e2 51 3e 14 73 30 3e 0b 36 8c bd da 8d b2 3e
       0.20496446 0.17231399 -0.068462454 0.3487385
000120 b0 08 4f 3f a1 6c 34 3f 03 3f 03 40 33 42 70 3e
       0.8087263 0.70478255 2.050721 0.23462753
000130 64 2b 05 be 2b ca b4 3f 75 42 5d 3f f1 bb 5d be
       -0.13004833 1.4124197 0.8642953 -0.21653725
000140 57 f8 39 3d 85 2e aa 3e 57 90 91 3e 71 31 1e 3f
       0.04540285 0.33238617 0.28430435 0.6179419
000150 94 54 d9 bd 55 32 76 3f 59 d4 6c 3f 90 ca 7a 3d
       -0.10611835 0.9617055 0.92511517 0.061228335
000160 55 f4 47 3e 3b 8a a2 3f 1a 7c 35 3f 84 e6 a6 3f
       0.19526799 1.2698435 0.7089249 1.3039098
000170 f6 09 b9 3f 53 5c 65 3f a2 8a 81 3f 69 c7 f9 3e
       1.4456165 0.89594 1.0120432 0.4878495
000180 a4 30 99 be c1 ad 31 3f f2 20 79 3e 1e b0 b9 3e
       -0.29919922 0.6940575 0.24328974 0.3626718
000190 7e ef 2b be 2a f8 b8 3f 86 0a 77 bf db 2e 3a 3f
       -0.16790578 1.4450734 -0.9650043 0.72727746
0001a0 9a ab 2c be 47 87 1e 3f bf 4a ee 3d 5e 24 1b be
       -0.16862336 0.61925167 0.116353504 -0.15150592
0001b0 3a b1 81 3e 80 1c 51 3f 75 be 1d 3f d9 59 89 be
       0.25330526 0.8168411 0.6161874 -0.2682636
0001c0 bc 65 79 3e 1f 33 9a 3d 04 e8 fe 3e b2 51 0b 3f
       0.24355215 0.07529282 0.4978639 0.5442153
0001d0 55 b7 70 3e e0 73 d2 bd fe 3d 09 be ca 88 a1 3e
       0.23507436 -0.10276008 -0.13402554 0.31549674
0001e0 12 41 fa 3e cb 54 61 3f 19 0a b9 3e 39 d7 eb 3f
       0.4887777 0.8802001 0.36140516 1.8425056
0001f0 4b 35 7b 3f 11 51 95 bc d1 47 81 3d 78 4a 11 bd
       0.98128194 -0.018227132 0.06312526 -0.03547141
000200 07 34 d2 3c a7 57 d4 bd e5 e8 e1 bd 64 26 96 3e
       0.025659574 -0.10368281 -0.11030749 0.29326165
000210 49 47 b4 3e 17 d2 15 be a7 67 80 be 94 75 bb 3e
       0.35210636 -0.14630924 -0.2507908 0.36613142
000220 58 4e 2b bd 84 ab 3a 3f 91 d6 84 bd 1a da ab 3e
       -0.04182276 0.7291796 -0.06486238 0.33564836
000230 ab 17 58 3e 19 12 39 3f 40 fd 32 3f af 97 51 3e
       0.21102779 0.7229324 0.6991768 0.20468019
000240 27 f7 e2 3e 8c b2 6a 3f 1e c6 de 3d 47 db 0e 3f
       0.44329187 0.9167869 0.108776316 0.5580334
000250 02 a3 9c 3e 02 9a c3 3e e2 67 38 bf fa f5 39 3d
       0.30593115 0.38203436 -0.7203351 0.045400597
000260 fb f8 0a 3e d4 ef 8a bf 57 c3 9d 3e 6b 4e 97 3f
       0.13571541 -1.085444 0.30813095 1.1820806
000270 37 19 93 3f 22 7c 14 3e 01 fe 83 3e d1 90 05 3f
       1.149207 0.14500478 0.25779727 0.521741
000280 68 d0 87 3e 3b a2 97 3d 3d 72 f5 3f 78 80 ea 3f
       0.2652619 0.0740399 1.9175488 1.8320456
000290 cd ce 58 be 83 b3 17 bd d7 f1 82 3e 81 0f 9f bd
       -0.21172638 -0.03703643 0.25575134 -0.07766629
0002a0 6f 8e 4a 3e ca a3 0f 3f a2 60 85 3f 1f 3a ea 3f
       0.19780897 0.561093 1.0420115 1.8298987
0002b0 9b 7d d1 3f cf 6a 9c 3f a4 4b f9 3e 6a 92 77 3f
       1.6366457 1.2220095 0.48690522 0.96707785
0002c0 d7 70 85 3e fe fe 79 bf a6 f2 ea 3e ac 86 6b 3f
       0.26062652 -0.9765471 0.4588825 0.9200237
0002d0 00 31 e2 3e 35 75 41 3f a5 5d a3 3e 16 d9 c3 3e
       0.4417801 0.7556947 0.31907383 0.3825156
0002e0 b3 20 ea 3e 2b ae 5a 3e 56 8b 37 be e6 27 19 be
       0.45728073 0.21355502 -0.17924246 -0.14956626
0002f0 6b 9a ff 3e 0c 5c 06 bd 44 3e f3 3e de d6 6c 3f
       0.499225 -0.032802626 0.47508442 0.9251536
000300 70 1f 34 3e 03 dc 32 3e 72 3b 87 3e 18 90 0d bf
       0.17590117 0.1746674 0.2641254 -0.55297995
000310 aa 6f 18 bf 31 0d 0e bf 81 43 12 bf 4e 47 0e bf
       -0.59545386 -0.5548888 -0.5713425 -0.5557755
000320 b8 d9 15 bf 29 92 0d bf 91 50 e7 be c2 74 0b bf
       -0.5853534 -0.5530115 -0.45178655 -0.54475033
000330 b7 ac 03 bf 29 b3 be 3e 50 94 64 bf 7c fa 31 bc
       -0.51435417 0.37246063 -0.89288807 -0.010862943
000340 79 d2 95 bd 36 1e 09 3f 97 b1 4b be fd 6e e2 be
       -0.07315535 0.53561723 -0.19891964 -0.44225302
000350 56 79 4f bf 4e 8e 31 be c1 24 5e 3e ee 6e 27 3f
       -0.8104452 -0.17339441 0.21693708 0.6540364
000360 dd db 9d 3e 94 88 9d bf 79 1c 9c bf 37 22 0e 3e
       0.30831805 -1.2307305 -1.2196189 0.1388024
000370 5f ad 0d be f7 f3 b9 3f 7b ab 69 3f 76 bf 1e 3e
       -0.13835667 1.4527577 0.91277283 0.15502724
000380 6e 1f 8b bd d0 98 40 3e 47 26 ad 3e 04 88 5c 3d
       -0.06793104 0.18808293 0.33818266 0.053840652
000390 44 dc d7 bd c6 21 8d 3f b0 78 b9 3e 8c 44 47 bd
       -0.10540059 1.1025932 0.3622489 -0.048649356
0003a0 ad dc 4a 3e 98 f7 aa 3e 0a 9e 2f 3f 59 24 ab 3e
       0.19810744 0.33392024 0.68600523 0.3342617
0003b0 e0 b2 60 3e ca e4 4b 3e cf b7 39 bc 22 7b 8c be
       0.21943235 0.19911495 -0.011335327 -0.27437693
0003c0 13 41 01 40 27 07 8a 3d b3 4a 8e 3e 06 08 c3 3e
       2.0195968 0.067396455 0.27791366 0.3809206
0003d0 0c b6 48 3f cd 84 e9 bc 21 2f 5d 3f f7 8b c9 3d
       0.7840278 -0.028505707 0.8640004 0.09841149
0003e0 9c 56 31 be 8f 49 1b 3e dd 07 f3 3d 3c 97 50 bf
       -0.17318195 0.15164779 0.11866734 -0.81480765
0003f0 be f3 dd 3f 66 04 40 3f 19 1d 7a be 83 c4 0e 3f
       1.7340009 0.7500671 -0.24425162 0.55768603

l1.bias f4 [8]
000000 c3 09 e3 3f 3f 3a 6c 3f b6 c6 24 40 29 09 f3 3f
       1.7737354 0.92276376 2.5746284 1.898717
000010 59 5e ef 3f 6b 8d b7 3f 1d fc 3d 40 21 0c 00 40
       1.8700668 1.4340032 2.9685128 2.0007403

l2.weight f4 [8, 8]
000000 be 94 05 40 b0 7f 88 bf 48 e5 08 40 6f 87 b3 3f
       2.0872035 -1.0663967 2.1389942 1.4025706
000010 be 33 0e 3f 4f 45 93 3f 77 06 e8 3f 3e 37 53 3f
       0.555477 1.1505526 1.8126973 0.8250617
000020 f8 9e 44 bd 3a 3e 63 be 1e 99 93 be d7 5c 8a be
       -0.048003167 -0.22191706 -0.28827757 -0.27023956
000030 d9 aa 54 be 77 20 a8 3e 1c fa 9e bd 59 47 57 be
       -0.20768298 0.3283727 -0.07762548 -0.2102331
000040 d0 7e 2b 40 85 7f 85 3f b9 8b a2 3e 9a 64 07 c0
       2.679615 1.0429541 0.31747225 -2.1155152
000050 10 4e 45 3f a0 0d e2 3f 7d bd 20 40 00 93 31 40
       0.7707224 1.7660408 2.5115654 2.7745972
000060 38 d5 32 bf 88 ed 37 40 53 50 f3 3f 28 86 51 40
       -0.69856596 2.8738728 1.9008888 3.2738132
000070 9b 66 9d bf 60 82 24 40 52 83 07 40 f0 f5 26 40
       -1.2296938 2.5704575 2.1173902 2.6087608
000080 57 ea 8f bf dd 42 bc be f9 22 39 40 93 79 23 bf
       -1.124339 -0.36769763 2.8927596 -0.6385738
000090 1d 01 84 3f 47 fa cd be f7 fc bc 3f c1 c5 e3 3f
       1.031284 -0.4023001 1.4764699 1.7794725
0000a0 d3 01 4d 40 18 60 78 3f 15 7c 6c 40 c8 cf 1e 40
       3.2032363 0.9702163 3.6950734 2.481432
0000b0 31 77 7e 40 fa b2 4e 40 19 63 1f 3f 9c 45 72 bf
       3.9760249 3.2296739 0.62260586 -0.94637465
0000c0 2f ec c7 3f 8a 0c 16 c0 77 8a be 3f 9a 13 cd 3f
       1.5618953 -2.3445153 1.4886006 1.6021607
0000d0 a7 58 fb bf 09 34 d5 3f 96 56 63 3f 1b 0b 21 3f
       -1.963643 1.6656505 0.88803995 0.6290757
0000e0 30 7e 2e 3f df 20 8c 3b bc 20 97 bc fe 6b 25 40
       0.68161297 0.0042763795 -0.018448226 2.5847163
0000f0 71 fc a1 3f 9b 44 02 c0 be a6 5a 40 4e ad a5 3f
       1.2655164 -2.0354373 3.4164271 1.2943513

l2.bias f4 [8]
000000 cd 3f 15 3e 0a 36 67 be 0f d6 73 3f 73 22 1d 3f
       0.1457512 -0.22579208 0.952485 0.6138069
000010 4d e4 71 3f 0e fd c0 3f 11 8d 7a 3e 26 48 b8 3f
       0.94488984 1.5077226 0.24467875 1.4397018

l3.weight f4 [25, 8]
000000 5b 31 ff be 3d ef 98 3e 61 3c 2d c0 6e cb 39 bf
       -0.49842343 0.29870024 -2.7068102 -0.72576034
000010 0b 4d 22 c0 63 36 28 be d1 06 42 3f 92 46 a2 bf
       -2.5359523 -0.16426997 0.7579165 -1.2677786
000020 2c 30 d5 3e 7c 4d a9 3d ce a3 0f 3f fe 33 8d c0
       0.41638315 0.08266732 0.5610932 -4.4125967
000030 38 6a 34 bf b7 89 96 3e d7 60 27 3d a7 27 24 c0
       -0.70474577 0.29401943 0.040863838 -2.5649202
000040 6f 96 31 c0 f0 b0 f7 3d 12 83 a8 bf 5e 95 ac bd
       -2.7748067 0.12094295 -1.3165 -0.08426927
000050 24 0b 22 c0 26 07 62 3f 36 bb f5 be 6e 7e 0e c0
       -2.53193 0.8829216 -0.47994393 -2.2264667
000060 fe 96 5a c0 d4 09 4b be e7 9a e8 3e e5 7b 02 be
       -3.4154658 -0.19827968 0.4543068 -0.12742575
000070 89 0c 28 3f c1 ef 46 c0 69 70 1a bf e5 a8 6c 3f
       0.6564413 -3.1083834 -0.60327774 0.9244521
000080 fb f0 16 c0 a2 4f e4 bd 3f e1 44 bf 14 4a 0a 3f
       -2.3584583 -0.11148001 -0.769062 0.54019284
000090 20 86 0c c0 73 8e 1e c0 07 61 88 3e 1c ce 26 3f
       -2.1956863 -2.4774444 0.26636526 0.6515825
0000a0 f9 6d 9d bf 00 d3 b1 3d 4e 05 e9 be 3c 37 22 c0
       -1.2299186 0.08682823 -0.4551186 -2.5346212
0000b0 47 93 a2 3e f9 89 37 bf a8 6d 4e 3d c7 d0 fe be
       0.3175299 -0.71694905 0.050397545 -0.4976866
0000c0 e5 e2 5d c0 34 27 c1 3d 8d ae a3 be d8 c9 75 be
       -3.4669735 0.094313055 -0.3196911 -0.24002779
0000d0 bf 3a 01 3f fa d0 88 bf 13 57 e9 bf 3a 6b 4c be
       0.50480264 -1.0688775 -1.8229698 -0.19962779
0000e0 be 70 3a c0 ef 96 8f 3e e5 77 01 c0 8e af 18 3e
       -2.9131312 0.2804484 -2.0229428 0.14910719
0000f0 cd 21 3a 3e ee 4a bc be 61 a1 8a 3e f3 b1 e8 bf
       0.18176956 -0.36775917 0.27076247 -1.8179306
000100 30 d1 a0 bf 2c d9 ef bd 44 ce 09 bf 68 55 00 bf
       -1.2563839 -0.11711344 -0.5383036 -0.5013032
000110 65 44 ba 3e 63 ab 05 c0 fb 2b a5 3d 05 23 a1 bf
       0.36380306 -2.0885856 0.08065029 -1.2588812
000120 81 bf 4b c0 81 9a a5 3e d6 4d 38 3f 2f 32 8c 3f
       -3.1835635 0.3234444 0.7199377 1.0952815
000130 0a 4e aa be 53 d9 1c c0 40 b3 a7 bf c9 97 a8 bf
       -0.33262664 -2.4507644 -1.3101578 -1.3171321
000140 ec e9 0c bf 52 d8 42 3e 71 9e 2c c0 f0 f9 68 bf
       -0.55044436 0.19027832 -2.6971705 -0.91006374
000150 a3 c3 9b bd e1 a9 bf bf 53 fe 14 be 53 da 49 3e
       -0.07605674 -1.4973718 -0.14550142 0.1971219
000160 33 55 55 c0 e2 5f 70 3e db 07 83 3f a2 e9 d1 bf
       -3.3333251 0.23474076 1.0236772 -1.6399424
000170 f1 9e 04 3f 0e cd f2 bd 26 a5 27 c0 06 31 85 bf
       0.51805025 -0.11855517 -2.6194549 -1.0405586
000180 58 4a 32 c0 ef 89 af 3e 9f 68 db bb 7f f6 b8 be
       -2.7857876 0.34284922 -0.0066958214 -0.36125562
000190 ab 60 10 c0 5a 0b 2e bf 32 3e 41 3d c4 c0 4e bf
       -2.2559001 -0.6798607 0.047178455 -0.80762887
0001a0 2d 05 bd bf 83 87 19 be 8d 51 2e c0 69 75 84 bf
       -1.4767205 -0.149931 -2.7237275 -1.0348331
0001b0 23 c9 97 bf 5a 19 a2 3e 65 76 36 c0 48 06 26 3f
       -1.1858257 0.31659967 -2.8509762 0.64853334
0001c0 11 d5 a3 be b7 4d 86 3e 0a fd 02 bf 0b 8e 82 c0
       -0.31998494 0.26231167 -0.51167357 -4.079839
0001d0 3b 2a 3b c0 73 81 47 3f e4 79 3b bf 01 b5 a6 3e
       -2.9244525 0.779319 -0.73232865 0.3255997
0001e0 bc 1c d7 3e 36 48 18 be 53 e4 ff bf e2 88 2c c0
       0.4201411 -0.14871296 -1.9991554 -2.6958547
0001f0 97 cb b2 bf 84 d3 49 3f 99 bd aa 3e af 99 27 c0
       -1.3968381 0.7883837 0.33347777 -2.618755
000200 12 8d 5b c0 60 f6 16 bc d8 c4 a2 3e 44 03 a6 3d
       -3.4304852 -0.009214014 0.31790805 0.081060916
000210 6a 2f 87 3f 80 b1 0b bf 83 90 85 bf 02 09 60 c0
       1.0561345 -0.5456772 -1.0434726 -3.5005498
000220 0c 2f 08 bf 33 e7 68 be e8 93 18 3f 1c 06 07 c0
       -0.5319679 -0.22744446 0.5960069 -2.109748
000230 64 b8 bf b9 45 cc 42 c0 be 29 ad 3e 72 79 e6 3e
       -0.0003656774 -3.0437176 0.3382091 0.4501453
000240 65 6b 5c 3e 02 79 5b 3e c1 25 66 c0 4f 27 3e c0
       0.21525343 0.2143288 -3.5960543 -2.9711492
000250 cb 58 cf 3e ab 81 b2 3c 78 9d fc 3b d4 4d b8 bd
       0.4049743 0.021790346 0.0077092014 -0.089992195
000260 13 8d a5 bf 43 ba 92 be 6f 9c 67 3f 7b 6a f6 bf
       -1.2933677 -0.2865773 0.90473074 -1.9251245
000270 77 be 22 c0 94 fd 2c 3f 69 d2 bd bf 38 2c 2e c0
       -2.542875 0.6757443 -1.4829837 -2.721449
000280 2d 1e 45 bf 00 2f 90 bc a8 fd 30 be 99 c6 91 c0
       -0.7699917 -0.017600536 -0.17284262 -4.555493
000290 dc 87 97 3f f6 5b 9f 3d ef e6 67 c0 05 e6 4d 3f
       1.1838336 0.07781212 -3.62347 0.80429107
0002a0 fd 1d 59 c0 20 2a 9d bd 9b cc ff bf c0 05 93 3f
       -3.3924553 -0.0767405 -1.9984316 1.148613
0002b0 1d ff 1f c0 d4 3a 38 be 26 86 ae bf 47 ad f6 be
       -2.4999459 -0.17991191 -1.3634689 -0.48179075
0002c0 db b6 6c bf e1 6c 18 be 95 de b8 ba 18 51 99 bf
       -0.92466515 -0.14885284 -0.001410442 -1.1977873
0002d0 55 8c 98 bf 3f c9 0b bf 45 c5 1d 3f d7 49 51 c0
       -1.1917826 -0.5460395 0.61629134 -3.2701318
0002e0 d0 9b 60 3e c2 cc 38 be 92 4c fd be 5a 5d c3 bf
       0.21934438 -0.18046859 -0.4947248 -1.5262864
0002f0 fe dc 4b c0 d1 84 f0 bf 07 39 17 3f 91 e9 c9 3d
       -3.1853633 -1.8790532 0.5907139 0.098590024
000300 13 b4 43 c0 38 50 0e be 63 0e fa 3e 87 b1 c3 bf
       -3.0578659 -0.13897789 0.488391 -1.5288552
000310 40 c4 8a bf 49 5d 75 bf 97 69 e0 bf c5 98 96 3f
       -1.0841141 -0.95845467 -1.7532223 1.1765372

l3.bias f4 [25]
000000 8e 80 77 be 0e e7 fd 3c 0f 6f c9 3d cc 42 27 3e
       -0.24170133 0.030993965 0.09835636 0.16334075
000010 0e 73 b5 3d b9 96 0e 3e 8a 7c dd be 97 7a 8b be
       0.088598356 0.13924684 -0.43259078 -0.27241966
000020 ed bf 2a bf c2 92 86 3e 4c fe 49 be fc bf 0a 3e
       -0.66699106 0.26283842 -0.19725913 0.13549799
000030 3f 3d c5 be ad 89 06 3e 32 1c 09 3f 3c 8d 8c be
       -0.3852329 0.13138457 0.5355865 -0.27451503
000040 21 bb 2d 3e 57 f2 a5 be da a6 86 bd 5a 37 36 be
       0.16965915 -0.32411453 -0.06574793 -0.17794552
000050 fe 55 86 3e 32 4b 27 3f 58 94 f4 be e4 a3 86 be
       0.26237482 0.65349114 -0.47769427 -0.26296914
000060 67 44 94 3e
       0.28958437
